word_recognition_ros/src/4_layer_globalpool.tflite (tflite, 998904 bytes, 20 tensors)

batch_normalization/FusedBatchNormV3_add_param f4 [32]
-1.5598865 -0.19777575 -1.4204725 -1.0427799 -0.30459026 -0.718153 -0.1962758 -2.0153856
-0.79881114 -2.0327876 -1.5744699 -1.1911447 -0.21588586 -1.0214046 -1.0654738 -0.16145833
-0.61164623 -0.8924639 -1.996839 -2.1190884 -0.029796302 -1.100018 -1.9258573 -0.7678786
-0.1637332 -1.0274401 -0.069064885 -1.8245726 -0.36135885 -0.82996964 -1.2333871 -1.6869254
00000000: 5caa c7bf ba85 4abe 0bd2 b5bf d079 85bf
00000010: 41f3 9bbe e0d8 37bf 86fc 48be 14fc 00c0
00000020: e37e 4cbf 3119 02c0 3b88 c9bf 6e77 98bf
00000030: 2f11 5dbe 63bd 82bf 7261 88bf 5555 25be
00000040: d994 1cbf 8478 64bf 6c98 ffbf 259f 07c0
00000050: 6017 f4bc 64cd 8cbf 7e82 f6bf b193 44bf
00000060: ada9 27be 2883 83bf e471 8dbd 988b e9bf
00000070: 0704 b9be e478 54bf a1df 9dbf 2ced d7bf

batch_normalization/FusedBatchNormV3_mul_0_param f4 [32]
14.802985 8.864453 13.056945 8.146288 10.689873 5.811866 23.218956 3.0232196
5.7622566 3.385086 4.610636 1.350955 5.089352 4.0977216 1.6849385 7.943162
8.946669 5.633709 3.2444065 2.794875 6.3688245 4.7138324 15.234161 11.198987
9.177175 6.130591 49.47129 4.828136 4.465441 10.279147 1.7110451 15.584916
00000000: 07d9 6c41 cdd4 0d41 3fe9 5041 3257 0241
00000010: b809 2b41 cefa b940 6cc0 b941 6e7c 4140
00000020: 6864 b840 40a5 5840 558a 9340 18ec ac3f
00000030: f9db a240 8920 8340 11ac d73f 622e fe40
00000040: 8e25 0f41 5847 b440 5ba4 4f40 3bdf 3240
00000050: 69cd cb40 b7d7 9640 20bf 7341 0d2f 3341
00000060: b5d5 1241 cd2d c440 9ae2 4542 1780 9a40
00000070: e5e4 8e40 6377 2441 8703 db3f d15b 7941

batch_normalization_1/FusedBatchNormV3_add_param f4 [64]
-0.47746858 -0.40392157 -0.15017584 -0.58893883 -0.68824124 -0.2106212 -0.47579077 -0.26851922
-0.33609316 -0.42523855 -0.06613228 -0.550214 -0.49038798 -0.37899202 -0.18632476 -0.48736444
-0.1936462 -1.2451364 -0.64051956 -0.81254613 -1.0522408 -0.08865762 -0.6394079 -0.6721329
-0.3237963 -0.5912527 -0.5706868 -0.25323617 -1.1391761 -0.45873782 -0.45899233 -0.25016922
-0.55820155 -0.31264836 -0.45842558 -1.0389655 -0.50902146 -0.7669696 -0.381577 -0.71869123
-0.63794637 -0.37490958 -0.21627462 -0.6767058 -0.31179118 -0.5608121 -0.39944646 -0.30815527
-0.097685784 -0.23539445 -0.5672337 -0.3510496 -0.5532172 -0.35249078 -0.11925641 -0.6592249
-0.49264124 -0.16255632 -0.7966594 0.008468837 -0.28575078 -0.40538827 -0.06310639 -0.24871679
00000000: c376 f4be cfce cebe b2c7 19be b2c4 16bf
00000010: 9430 30bf 15ad 57be d99a f3be 5a7b 89be
00000020: 6714 acbe deb8 d9be 5c70 87bd d3da 0cbf
00000030: 2214 fbbe 3e0b c2be ebcb 3ebe d587 f9be
00000040: 304b 46be a160 9fbf 17f9 23bf 0603 50bf
00000050: d4af 86bf 2092 b5bd 3cb0 23bf e710 2cbf
00000060: a1c8 a5be 565c 17bf 8818 12bf 2ca8 81be
00000070: 86d0 91bf afdf eabe 0b01 ebbe 2e16 80be
00000080: 4ce6 0ebf 7213 a0be c2b6 eabe d2fc 84bf
00000090: 3b4f 02bf 1f58 44bf 0f5e c3be 26fc 37bf
000000a0: 7450 23bf 26f4 bfbe 1877 5dbe 973c 2dbf
000000b0: 18a3 9fbe 6291 0fbf 3f84 ccbe 87c6 9dbe
000000c0: 7c0f c8bd 3e0b 71be 3a36 11bf c6bc b3be
000000d0: a49f 0dbf ac79 b4be b43c f4bd f7c2 28bf
000000e0: 793b fcbe 2a75 26be dff1 4bbf e0c0 0a3c
000000f0: ed4d 92be 0d8f cfbe ec3d 81bd 9daf 7ebe

batch_normalization_1/FusedBatchNormV3_mul_0_param f4 [64]
0.3230064 0.26691967 27.69398 0.23757136 0.3524191 0.31070697 0.36959517 0.43634912
0.501193 0.21612485 0.37402523 0.38900873 0.19473672 0.2760154 0.25932157 0.23728518
0.23522095 0.13030611 0.14979783 0.23001355 0.20307784 0.34272072 0.21226121 0.16548735
0.2366652 0.27164632 0.29680818 0.4255751 0.15470839 0.39567342 0.2646748 0.23928529
0.51816267 0.45359218 0.30235457 0.14902835 0.27454856 0.3444304 0.29311094 0.26625758
0.22915532 0.34706968 0.13977708 0.15503508 0.2545719 0.25788444 0.8684596 0.31383324
0.48984572 0.25711724 0.34605038 0.37399763 0.26858285 0.3235457 0.35534024 0.38395804
0.40739983 0.3203548 0.17396446 0.655528 0.27284068 0.40804216 0.53709644 0.2598689
00000000: 1861 a53e b2a9 883e 458d dd41 e845 733e
00000010: 4770 b43e fc14 9f3e 943b bd3e 2769 df3e
00000020: 2f4e 003f d54f 5d3e 3c80 bf3e 272c c73e
00000030: 1069 473e e451 8d3e ccc5 843e e3fa 723e
00000040: c3dd 703e f76e 053e 9a64 193e ac88 6b3e
00000050: a3f3 4f3e 1779 af3e 015b 593e 8475 293e
00000060: 5d58 723e 3a15 8b3e 3ef7 973e fbe4 d93e
00000070: e06b 1e3e b595 ca3e 7583 873e 3407 753e
00000080: 4fa6 043f 3c3d e83e 38ce 9a3e e39a 183e
00000090: a191 8c3e 2e59 b03e a312 963e ea52 883e
000000a0: b1a7 6a3e 1eb3 b13e b921 0f3e 84c1 1e3e
000000b0: 4057 823e 6e09 843e 5e53 5e3f c0ae a03e
000000c0: 0fcd fa3e dfa4 833e 842d b13e 9e7c bf3e
000000d0: b183 893e c8a7 a53e 28ef b53e 2696 c43e
000000e0: b696 d03e 8b05 a43e bd23 323e afd0 273f
000000f0: c6b1 8b3e e7ea d03e 277f 093f 890d 853e

batch_normalization_2/FusedBatchNormV3_add_param f4 [64]
-0.073761225 -0.1327824 -0.2480681 -0.13423108 -0.4349661 -0.5631229 -0.22971508 -0.15646611
-0.29362965 -0.118986286 -0.17269987 -0.17928582 -0.56155556 -0.052511066 -0.19067562 -0.1864421
-0.092221156 -0.1388064 -0.28862178 -0.21618873 -0.31485164 -0.13516486 -0.41794875 -0.5371301
0.042200685 -0.18069744 -0.09958267 -0.29675525 -0.12789117 -0.11601341 -0.18795833 -0.47732988
-0.27895206 -0.10214698 -0.19757582 -0.18799488 -0.2517265 -0.21439913 -0.077887625 -0.10960889
-0.19510749 -0.35435686 -0.1658108 -0.21613517 -0.11466275 -0.38317382 -0.4670527 -0.3427101
-0.26120755 -0.035731465 -0.33194068 -0.23113063 -0.1312749 -0.13521557 -0.43192795 -0.061193258
-0.3474149 -0.30911666 -0.038598925 -0.25037062 -0.4714624 -0.051818296 -0.43772787 -0.28356236
00000000: 2010 97bd 1cf8 07be 9005 7ebe df73 09be
00000010: e0b3 debe d328 10bf 6e3a 6bbe a738 20be
00000020: a056 96be 15af f3bd 3cd8 30be b496 37be
00000030: 1bc2 0fbf d815 57bd 7840 43be aeea 3ebe
00000040: 72de bcbd 4423 0ebe 3cc6 93be 9460 5dbe
00000050: 3c34 a1be a868 0abe 61fd d5be 5c81 09bf
00000060: a0da 2c3d c008 39be 00f2 cbbd 4ef0 97be
00000070: e7f5 02be 7098 edbd 2678 40be 9564 f4be
00000080: ced2 8ebe 7032 d1bd 5151 4abe bb81 40be
00000090: 4ce2 80be 728b 5bbe 8c83 9fbd a07a e0bd
000000a0: 42ca 47be 436e b5be 4eca 29be 8a52 5dbe
000000b0: 4ed4 eabd 5c2f c4be 8821 efbe b377 afbe
000000c0: ffbc 85be 285b 12bd 21f4 a9be 82ad 6cbe
000000d0: ed6c 06be f375 0abe a925 ddbe c8a5 7abd
000000e0: 5ee0 b1be 8a44 9ebe e819 1ebd 9430 80be
000000f0: 8563 f1be 6c3f 54bd de1d e0be 162f 91be

batch_normalization_2/FusedBatchNormV3_mul_0_param f4 [64]
0.10875818 0.1255779 0.13222764 0.14062974 0.10940632 0.09331438 0.17547962 0.16296701
0.25424096 0.15416421 0.15820971 0.16263899 0.095593356 0.22114597 0.20432253 0.1667771
0.12232267 0.11175616 0.1463727 0.17101581 0.17012995 0.11637152 0.08007149 0.12481143
0.13505456 0.11806287 0.14156374 0.11686943 0.29720196 0.17728631 0.14681305 0.097037844
0.1907676 0.16514651 0.14396928 0.20208913 0.13723013 0.15013118 0.11108944 0.17980745
0.21868628 0.11679331 0.16329609 0.15045771 0.13272077 0.121152826 0.15900126 0.18232091
0.19232224 0.115123846 0.10051466 0.19438402 0.18909663 0.18257497 0.18840249 0.14557979
0.17914222 0.18685246 0.25780037 0.18473905 0.17199123 0.16630441 0.11720418 0.1945698
00000000: 9cbc de3d 7e97 003e af66 073e 3e01 103e
00000010: 6c10 e03d 9c1b bf3d eeb0 333e d3e0 263e
00000020: df2b 823e 39dd 1d3e ba01 223e d68a 263e
00000030: 73c6 c33d 1774 623e ed39 513e 9ec7 2a3e
00000040: 4f84 fa3d 6ae0 e43d bae2 153e c51e 2f3e
00000050: 8c36 2e3e 3154 ee3d 85fc a33d 239d ff3d
00000060: be4b 0a3e f2ca f13d 16f6 103e 3d59 ef3d
00000070: db2a 983e 8b8a 353e 2956 163e c7bb c63d
00000080: 9558 433e 2b1c 293e af6c 133e 74f0 4e3e
00000090: 0e86 0c3e fdbb 193e dc82 e33d 721f 383e
000000a0: 4cef 5f3e 5531 ef3d 1737 273e 9611 1a3e
000000b0: f4e7 073e f91e f83d 3ad1 223e 55b2 3a3e
000000c0: 1ff0 443e 0dc6 eb3d a1da cd3d 9b0c 473e
000000d0: 8ca2 413e eff4 3a3e 95ec 403e de12 153e
000000e0: 0f71 373e 4056 3f3e 69fe 833e 3c2c 3d3e
000000f0: 781e 303e b44b 2a3e bf08 f03d 4e3d 473e

batch_normalization_3/FusedBatchNormV3_add_param f4 [128]
-0.048914015 -0.03189966 -0.029162005 -0.01804626 -0.020018443 -0.069548115 -0.047458008 -0.04509896
-0.14450537 -0.059981816 -0.05010906 -0.62935126 -0.058972687 -0.021793023 -0.07076557 -0.11885716
-0.11038762 -0.054068275 -0.04781262 -0.052048534 -0.03620316 -0.06017615 -0.041243225 -0.52339464
-0.04587184 -0.058268383 -0.07353313 -0.06736185 -0.0614136 -0.046991706 -0.049314857 -0.053058647
-0.42145815 -0.43581554 -0.057802964 -0.02056615 -0.03313388 -0.03831196 -0.051919848 -0.070694536
-0.03185823 -0.034627132 -0.05593171 -0.034744717 -0.048597112 -0.032223977 0.01656422 -0.061979264
-0.040384874 -0.07498282 -0.056763574 -0.022789687 -0.0508648 -0.046814382 -0.048586085 -0.13393988
-0.037432954 -0.041049227 -0.052599773 -0.06030032 -0.05131267 -0.034678876 -0.049504876 -0.014945358
-0.048513412 -0.15564387 -0.037940994 -0.06423108 -0.16923243 -0.04828483 -0.03726159 -0.07871695
-0.024010628 -0.038523242 -0.047452018 -0.046424 -0.562415 -0.08303143 -0.3770048 -0.050915696
-0.096717805 -0.07589945 -0.039942198 -0.061640047 -0.050848067 -0.061193734 -0.022240728 -0.035676047
-0.046148367 -1.0397145 -0.03952457 -0.50144064 -0.043966144 -0.016119212 -0.042394415 -0.048284113
-0.03378819 -0.049648315 -0.04331535 -0.06575145 -0.05923579 -0.05545774 -0.073997974 -0.16092956
-0.04871434 -0.054840192 -0.05917582 -0.33784634 -0.033329777 -0.071683854 -0.044773743 -0.2890154
-0.06608258 -0.17887434 -0.060567617 -0.027875781 -0.026524305 -0.039835103 -0.06921297 -0.0467764
-0.055470154 -0.057520285 -0.06811583 -0.16246548 -0.034946755 -0.068945736 -0.036733717 -0.06192871
00000000: 105a 48bd 38a9 02bd 28e5 eebc c0d5 93bc
00000010: b8fd a3bc 3e6f 8ebd 5463 42bd b0b9 38bd
00000020: 37f9 13be 7eaf 75bd 283f 4dbd 2a1d 21bf
00000030: 588d 71bd 4887 b2bc 8aed 90bd 626b f3bd
00000040: e812 e2bd b276 5dbd 2ad7 43bd d830 55bd
00000050: c449 14bd 447b 76bd a8ee 28bd 31fd 05bf
00000060: 1ce4 3bbd d4aa 6ebd 8a98 96bd 02f5 89bd
00000070: d48c 7bbd 607a 40bd 60fe 49bd 0654 59bd
00000080: 5dc9 d7be 3723 dfbe cdc2 6cbd 587a a8bc
00000090: 64b7 07bd 00ed 1cbd e8a9 54bd 4cc8 90bd
000000a0: c67d 02bd 2ed5 0dbd a618 65bd 7a50 0ebd
000000b0: c40d 47bd 4afd 03bd b0b1 873c f8dd 7dbd
000000c0: 9c6a 25bd 9890 99bd ec80 68bd 70b1 babc
000000d0: 9c57 50bd 70c0 3fbd 3402 47bd 8927 09be
000000e0: 4c53 19bd 3c23 28bd dc72 57bd 78fd 76bd
000000f0: 3c2d 52bd 700b 0ebd a0c5 4abd 60dd 74bc
00000100: 00b6 46bd 1b61 1fbe 0468 1bbd 968b 83bd
00000110: 444b 2dbe 50c6 45bd 9c9f 18bd 5a36 a1bd
00000120: f0b1 c4bc 8cca 1dbd 0c5d 42bd 1827 3ebd
00000130: 6efa 0fbf 620c aabd c606 c1be fa8c 50bd
00000140: fc13 c6bd 2c71 9bbd 6e9a 23bd 467a 7cbd
00000150: 1046 50bd 48a6 7abd 3032 b6bc 0c21 12bd
00000160: 1206 3dbd 5d15 85bf 84e4 21bd 6a5e 00bf
00000170: d815 34bd 700c 84bc c4a5 2dbd 90c5 45bd
00000180: 7c65 0abd 085c 4bbd 706b 31bd b2a8 86bd
00000190: 3aa1 72bd a827 63bd 408c 97bd b8ca 24be
000001a0: b088 47bd 1ca0 60bd 5862 72bd 32fa acbe
000001b0: ce84 08bd fcce 92bd ac64 37bd d4f9 93be
000001c0: 4e56 87bd d62a 37be c015 78bd c05b e4bc
000001d0: 8049 d9bc 222a 23bd 88bf 8dbd 9c98 3fbd
000001e0: ac34 63bd 649a 6bbd 5080 8bbd 5a5d 26be
000001f0: 5424 0fbd 6c33 8dbd 1876 16bd f6a8 7dbd

batch_normalization_3/FusedBatchNormV3_mul_0_param f4 [128]
0.398615 0.47254646 0.29208863 0.29598415 0.5309872 0.2633651 0.43932593 0.4580188
0.48579043 0.8307169 0.267694 0.33832955 0.38855335 0.4188657 0.34761864 0.26253682
0.2159422 0.40834516 0.3646189 0.33470312 0.33204076 0.36888734 0.3570414 0.24251612
0.34610942 0.19468084 0.23221588 0.7137484 0.32981247 0.2992827 0.26133525 0.31940666
0.2503347 0.487078 0.5191068 0.324313 0.3641089 0.38576147 0.30018464 0.417522
0.42815205 0.45541945 0.60378546 0.45945817 0.43288353 0.43561754 0.49071434 0.2587713
0.7698622 0.3382759 0.37518272 0.21963729 0.39589685 0.30761832 0.4218657 0.36267355
0.430356 0.4674479 0.24081902 0.34138697 0.50140506 0.3570839 0.3652936 0.40805545
0.24778016 0.4599583 0.3247644 0.40232748 0.20699392 0.28537434 0.33984956 0.3285903
0.3126557 0.3384751 0.42880955 0.41438675 0.44486213 0.43069074 0.391263 0.5425452
0.23629777 0.30408415 0.4356572 0.30426398 0.3574376 0.45462248 0.3050662 0.3209988
0.49631068 0.010437186 0.22285978 0.30007124 0.30512542 0.47183365 0.3805746 0.3938411
0.24636771 0.2715661 0.3273945 0.32632768 0.6344266 0.25172478 0.24776973 0.27747595
0.25389767 0.3266294 0.3654853 0.23324955 0.38350472 0.35764888 0.30197883 0.29953083
0.3475807 0.2867966 0.29229963 0.35768417 0.41142786 0.46186233 0.3825198 0.5310576
0.4047989 0.22431704 0.3403695 0.35761124 0.30261618 0.31407154 0.40023273 0.38384542
00000000: 4417 cc3e 9cf1 f13e a48c 953e 3c8b 973e
00000010: c7ee 073f cad7 863e 54ef e03e 7181 ea3e
00000020: 86b9 f83e dda9 543f 300f 893e 8839 ad3e
00000030: 77f0 c63e 9175 d63e 12fb b13e 3a6b 863e
00000040: f41f 5d3e 9e12 d13e 54af ba3e 355e ab3e
00000050: 3f01 aa3e cdde bc3e 21ce b63e 2556 783e
00000060: 4135 b13e 6a5a 473e 00ca 6d3e 37b8 363f
00000070: 2edd a83e 953b 993e bccd 853e 4589 a33e
00000080: df2b 803e 4a62 f93e 2fe4 043f 5b0c a63e
00000090: 7b6c ba3e 8782 c53e cdb1 993e 72c5 d53e
000000a0: bf36 db3e bd2c e93e af91 1a3f 1a3e eb3e
000000b0: e9a2 dd3e 4309 df3e e93e fb3e ac7d 843e
000000c0: b015 453f 8032 ad3e f317 c03e 99e8 603e
000000d0: feb2 ca3e 2680 9d3e c8fe d73e 59b0 b93e
000000e0: 9f57 dc3e 5555 ef3e 4399 763e 46ca ae3e
000000f0: 155c 003f b3d3 b63e c307 bb3e a5ec d03e
00000100: 15ba 7d3e a87f eb3e 8547 a63e defd cd3e
00000110: 37f6 533e 961c 923e c300 ae3e fd3c a83e
00000120: 6814 a03e 9c4c ad3e ed8c db3e 802a d43e
00000130: f8c4 e33e 7f83 dc3e a053 c83e 3ee4 0a3f
00000140: 0bf8 713e ebb0 9b3e 760e df3e 7dc8 9b3e
00000150: 1002 b73e 47c4 e83e a331 9c3e f459 a43e
00000160: 6f1c fe3e bb00 2b3c 5b35 643e f0a2 993e
00000170: 6639 9c3e 2e94 f13e adda c23e 8aa5 c93e
00000180: d147 7c3e b60a 8b3e 40a0 a73e 6c14 a73e
00000190: c869 223f 12e2 803e 59b7 7d3e 5411 8e3e
000001a0: e0fe 813e f83b a73e e420 bb3e f8d8 6e3e
000001b0: bb5a c43e c11d b73e f89c 9a3e 1b5c 993e
000001c0: 19f6 b13e 01d7 923e 4ca8 953e 6122 b73e
000001d0: aca6 d23e 3879 ec3e a3d9 c33e 64f3 073f
000001e0: cd41 cf3e 5eb3 653e e944 ae3e d218 b73e
000001f0: 82f0 9a3e fccd a03e 4eeb cc3e 6387 c43e

conv2d/Conv2D_bias f4 [32]
0.054695915 -0.25568807 0.09809007 -0.0008768165 0.004307888 0.12894745 -1.0165157 0.41485298
-0.107909136 0.35043892 0.18078774 0.3819616 0.2825595 0.53134084 0.37445772 -0.6792156
0.18901871 0.15294181 0.30942923 0.47252202 -0.819277 0.22556223 0.076646075 -0.026735602
0.03438169 -0.04432775 -1.098248 0.2290353 0.37697193 0.095235564 0.39782068 0.060407713
00000000: d308 603d 8ce9 82be 72e3 c83d 29da 65ba
00000010: 2f29 8d3b cd0a 043e 301d 82bf 9c67 d43e
00000020: 77ff dcbd bb6c b33e 6c20 393e 7990 c33e
00000030: a4ab 903e f405 083f ecb8 bf3e 13e1 2dbf
00000040: 1f8e 413e c79c 1c3e 826d 9e3e 68ee f13e
00000050: 23bc 51bf c9f9 663e 9ef8 9c3d 9f04 dbbc
00000060: d1d3 0c3d 0491 35bd 6493 8cbf 3b88 6a3e
00000070: 7702 c13e dd0a c33d 27af cb3e 146e 773d

conv2d/kernel f4 [1, 3, 3, 32]
0.3745032 -0.12611772 -0.45032695 -0.32209426 -0.20348765 0.21731912 -0.013898657 0.22417109
0.2794398 0.17041641 0.24493206 0.27829504 -0.16436341 -0.2097685 0.23788475 0.1702876
0.32777536 0.025776014 0.051612027 0.0072225803 0.092406094 0.009389752 0.27999517 -0.39055377
0.22159636 0.31052127 -0.025840946 -0.36221087 0.00042770477 0.22674282 0.12682936 0.32044592
0.02037789 0.18797015 0.03709434 0.16787234 0.17034847 0.06306379 -0.22689778 -0.035764053
0.14339441 0.10063056 0.13386759 0.23377998 -0.05488844 0.027614595 0.5261188 -0.06257027
-0.0077584167 0.10131141 0.025695452 0.0533957 -0.20743844 0.07320585 0.09065088 0.009909278
0.22225657 0.11081147 -0.11257005 -0.01142729 0.029418727 0.0152727505 0.33921355 0.08850827
-0.40002555 0.27474684 0.40618742 0.16750096 0.3393198 -0.060123555 -0.085511364 -0.14132956
-0.16677482 -0.1372907 -0.0475336 0.27216166 0.18517876 -0.041388687 0.23663269 0.0055373865
-0.27083504 0.13135219 0.00045446964 0.011339636 -0.3094105 0.109101534 -0.35451517 0.3773402
0.10893493 -0.33228743 -0.012787467 0.33163634 0.059345745 -0.17300984 0.23828089 -0.3883926
-0.13400912 0.3561682 -0.12956136 -0.14889824 -0.33319613 0.13950017 -0.11390178 0.23996264
0.34842968 0.31916305 0.5486673 -0.11090989 -0.34236786 0.18013936 -0.051416665 -0.18148875
-0.21418223 0.40554965 0.081794895 -0.070358336 -0.078388155 0.3091261 -0.2971401 0.09690795
0.10954569 0.2805402 0.09743836 -0.046482857 -0.068182416 0.34267038 0.094571285 -0.20618044
0.04846819 0.2892798 -0.08251056 0.23802008 -0.032709904 0.36419928 -0.040413618 0.08211804
0.47166985 0.20440857 0.49866676 -0.09194014 -0.108357616 -0.22500625 -0.022949558 -0.20430143
0.041794017 0.26599672 0.21761553 0.1442737 -0.18640739 0.37907708 0.020868937 0.104403436
-0.16552441 0.018336225 -0.07880367 0.07300453 -0.184335 -0.08050674 0.06447516 0.009030711
0.14162555 0.24949875 0.19016658 0.118349195 0.35242 0.2761778 0.07704618 0.01217188
0.18088181 0.103509635 0.26773912 0.07983709 0.11695947 -0.34595102 -0.14154838 -0.049123343
0.17549092 0.06366237 0.20139031 0.28710404 -0.22786368 0.25350595 0.3705323 -0.047555733
-0.08819683 -0.17091921 -0.15038495 0.10350976 -0.120078124 -0.3821896 -0.0741395 0.29259288
0.11274824 0.112316445 -0.24424773 0.5829096 -0.43830228 -0.37985533 0.0053829122 0.3994619
0.05426209 0.25159964 -0.1471979 0.39544368 -0.4443406 -0.36362302 -0.30053142 0.009096544
-0.3742046 -0.4647916 0.53907716 0.5381972 -0.12528883 -0.31848383 0.2902829 -0.035094857
-0.62904274 0.47213396 -0.030512929 0.2850256 -0.32079187 0.09556681 0.27628857 0.21914543
0.030548036 -0.037051138 -0.072713 0.18105221 -0.23052265 -0.62825567 -0.102085225 0.5726382
0.15578724 0.6147626 -0.120517 0.5486916 -0.5081011 -0.29230568 0.33280092 -0.33708024
-0.3425127 -0.62847537 0.57550365 0.7070859 -0.19014348 -0.5842246 -0.0011454693 0.15924965
-0.58236873 0.2699309 -0.0995614 0.3744112 -0.5294187 -0.14416263 0.5275265 0.047706746
00000000: e2be bf3e 0125 01be 4191 e6be 8ae9 a4be
00000010: 115f 50be e788 5e3e 31b7 63bc 1b8d 653e
00000020: bc12 8f3e a481 2e3e 78cf 7a3e b07c 8e3e
00000030: e24e 28be 8ecd 56be 0f98 733e df5f 2e3e
00000040: 2cd2 a73e 3828 d33c 2267 533d 65ab ec3b
00000050: 683f bd3d 79d7 193c 875b 8f3e aaf6 c7be
00000060: 28ea 623e a5fc 9e3e 64b0 d3bc b473 b9be
00000070: 903d e039 452f 683e 8edf 013e 7d11 a43e
00000080: 88ef a63c 3f7b 403e 3cf0 173d bae6 2b3e
00000090: d46f 2e3e 9727 813d e457 68be 547d 12bd
000000a0: fcd5 123e 6517 ce3d 9614 093e 0564 6f3e
000000b0: b3d2 60bd 0138 e23c b9af 063f d724 80bd
000000c0: 513a febb 5b7c cf3d 457f d23c 73b5 5a3d
000000d0: be6a 54be f3ec 953d 2ba7 b93d 865a 223c
000000e0: 3a97 633e 20f1 e23d 208b e6bd 8739 3bbc
000000f0: 8bff f03c 8f3a 7a3c 66ad ad3e d343 b53d
00000100: 26d0 ccbe 9eab 8c3e ccf7 cf3e 5f85 2b3e
00000110: 53bb ad3e 1e44 76bd 9520 afbd b2b8 10be
00000120: 05c7 2abe ef95 0cbe 98b2 42bd c658 8b3e
00000130: 809f 3d3e 2f87 29bd d74f 723e f772 b53b
00000140: e4aa 8abe 3081 063e e245 ee39 e1c9 393c
00000150: 0e6b 9ebe a070 df3d 0383 b5be bc32 c13e
00000160: 4719 df3d 9421 aabe 8682 51bc 3dcc a93e
00000170: 8614 733d 7e29 31be e8ff 733e 65db c6be
00000180: b039 09be ae5b b63e bcab 04be c878 18be
00000190: af98 aabe 22d9 0e3e 5645 e9bd c4b8 753e
000001a0: 6065 b23e 5769 a33e 7675 0c3f b924 e3bd
000001b0: d74a afbe 7476 383e 489a 52bd 30d8 39be
000001c0: 9652 5bbe 34a4 cf3e 1584 a73d 0818 90bd
000001d0: f889 a0bd c745 9e3e bf22 98be ad77 c63d
000001e0: 7e59 e03d f7a2 8f3e c38d c73d cf64 3ebd
000001f0: 39a3 8bbd 7e72 af3e 97ae c13d f720 53be
00000200: 9586 463d 7b1c 943e 4cfb a8bd 89bb 733e
00000210: d2fa 05bd 5478 ba3e c088 25bd 812d a83d
00000220: b67e f13e 7b50 513e 4051 ff3e 1d4b bcbd
00000230: 99ea ddbd 0a68 66be b600 bcbc 6534 51be
00000240: 3430 2b3d b930 883e 9bd6 5e3e 7cbc 133e
00000250: 94e1 3ebe 6416 c23e 55f5 aa3c 78d1 d53d
00000260: 3b7f 29be da35 963c d263 a1bd 6683 953d
00000270: 50c2 3cbe b8e0 a4bd 8d0b 843d 8cf5 133c
00000280: 4a06 113e 9a7c 7f3e 07bb 423e 1061 f23d
00000290: 6570 b43e 2d67 8d3e 63ca 9d3d 916c 473c
000002a0: 1539 393e dcfc d33d 1a15 893e a181 a33d
000002b0: 7288 ef3d 7e20 b1be 0ff2 10be 8f35 49bd
000002c0: e4b3 333e 6b61 823d 4339 4e3e 4dff 923e
000002d0: 1955 69be 88cb 813e 69b6 bd3e cdc9 42bd
000002e0: 8aa0 b4bd 7205 2fbe 83fe 19be edfc d33d
000002f0: 85eb f5bd 5bae c3be 73d6 97bd bcce 953e
00000300: 8de8 e63d 2a06 e63d 141c 7abe 9039 153f
00000310: 2869 e0be 667c c2be 2463 b03b 4586 cc3e
00000320: ed41 5e3d abd1 803e 0cbb 16be 9877 ca3e
00000330: 9c80 e3be cc2c babe 41df 99be ac09 153c
00000340: bf97 bfbe 2af9 edbe f600 0a3f 4bc7 093f
00000350: b74b 00be 5010 a3be f69f 943e a0bf 0fbd
00000360: f208 21bf 8bbb f13e 40f6 f9bc e0ee 913e
00000370: d53e a4be 88b8 c33d b275 8d3e a967 603e
00000380: e03f fa3c efc2 17bd 8eea 94bd c065 393e
00000390: 210e 6cbe 5dd5 20bf 0f12 d1bd 6b98 123f
000003a0: b186 1f3e 1561 1d3f 9ed1 f6bd 0d77 0c3f
000003b0: ea12 02bf 17a9 95be e264 aa3e c895 acbe
000003c0: d35d afbe c3e3 20bf 3554 133f 9503 353f
000003d0: f9b4 42be be8f 15bf 9223 96ba 5712 233e
000003e0: 1e16 15bf 6234 8a3e d9e6 cbbd d3b2 bf3e
000003f0: fc87 07bf 5e9f 13be fa0b 073f 2668 433d

conv2d_1/Conv2D_bias f4 [64]
0.06894553 0.1247029 -0.15163599 -0.19530049 -0.5991071 0.414929 -0.33111957 -0.18488121
-0.06939023 0.23527732 0.48862544 0.057449225 0.196426 -0.14737912 0.09732854 -0.0826877
-0.028928272 0.05290638 0.14911002 -0.14798541 -0.50389695 0.9402464 -0.21259479 -0.16914944
0.36356667 0.095201865 -0.23966403 -0.06921496 -0.01191128 0.2390297 -0.23829338 0.17554471
0.17088081 0.29739204 0.10258333 -0.056241296 -0.046402328 -0.33958048 -0.4039942 -0.37191343
-0.08720603 0.35140318 -0.0757592 -0.011764664 0.2776689 -0.14953616 0.16419135 0.19497041
0.367605 -0.38219538 -0.1555936 -0.077208094 0.15827239 0.14526737 0.12659506 -0.6262306
0.16373198 0.7545309 -0.049816854 0.9010794 -0.17089239 -0.25083536 0.9821978 0.51006764
00000000: 5033 8d3d 3c64 ff3d 7746 1bbe dafc 47be
00000010: 155f 19bf 9371 d43e 8188 a9be 8051 3dbe
00000020: 771c 8ebd 8aec 703e 1d2d fa3e e14f 6b3d
00000030: e623 493e 8dea 16be 3054 c73d 2b58 a9bd
00000040: fcfa ecbc 5cb4 583d 4cb0 183e 7d89 17be
00000050: 64ff 00bf fdb3 703f 73b2 59be 8335 2dbe
00000060: 6925 ba3e 32f9 c23d 7d6a 75be 93c0 8dbd
00000070: 8827 43bc 34c4 743e 2e03 74be fec1 333e
00000080: 61fb 2e3e c543 983e 3517 d23d 465d 66bd
00000090: 5e10 3ebd 7edd adbe 54d8 cebe 706b bebe
000000a0: 1399 b2bd 1eeb b33e a427 9bbd 94c0 40bc
000000b0: 9e2a 8e3e 0220 19be c721 283e 53a6 473e
000000c0: b936 bc3e 1daf c3be ee53 1fbe 471f 9ebd
000000d0: 2812 223e f8c0 143e 23a2 013e a650 20bf
000000e0: 5ba9 273e f028 413f c20c 4cbd 24ad 663f
000000f0: 6afe 2ebe 7e6d 80be 5171 7b3f cb93 023f

conv2d_1/kernel f4 [64, 3, 3, 32]
0.114390485 0.29570723 -0.28785777 0.11449115 -0.14327206 0.13175674 0.053545933 -0.25056475
-0.1633203 -0.39093682 0.1622332 -0.02836928 0.08822243 0.16678222 0.039930243 0.004553524
0.3195232 0.14545943 -0.46195152 -0.38317144 0.1410956 0.06927841 0.026734252 -0.15857477
0.1510375 -0.18869312 0.10857042 -0.16768742 0.26249048 0.6019937 -0.075542435 -0.055109333
-0.08701379 -0.41844955 0.010173092 -0.15214773 -0.16679677 -0.020222269 0.14351337 0.055523507
-0.19188552 -0.07096572 -0.1636527 0.022055477 -0.08035756 -0.07267305 0.12514068 -0.106930934
0.16047955 0.060627952 -0.18115552 -0.011963135 -0.054022416 0.014798688 -0.17569032 -0.2085946
0.12939957 -0.1211213 -0.26614162 -0.016419454 0.055922654 0.11986641 -0.014329603 -0.2507737
0.06463035 -0.3042346 0.0154831 0.2597699 -0.030895147 -0.03245984 -0.4758036 0.29654565
-0.10338921 0.11563209 0.036972392 0.20984237 0.12925425 -0.051993076 -0.03921401 -0.5599845
0.0037950373 -0.019188393 0.40439624 0.46468714 -0.33424863 0.23575999 0.09476197 0.2484737
-0.10313885 0.25513366 -0.61891127 0.15343969 -0.2017972 -0.53230923 0.1836094 0.064899035
-0.26839373 0.19124798 0.113306314 0.34070137 0.009695413 -0.7347251 0.006820555 -0.029924165
-0.20526738 0.036444042 -0.36304438 -0.056155387 -0.038607962 -0.17945868 0.03933187 -0.046787802
-0.18278378 -0.73829204 -0.028490772 0.10057587 -0.022246506 -0.751885 -0.3247227 0.3393991
-0.043700613 0.07228793 -0.1814312 0.2911312 0.04607986 0.027284302 -0.07816297 -0.18461925
-0.22974585 0.22042294 -0.100570336 0.11705112 0.19975966 -0.085439354 -0.13368276 -0.40039062
-0.08050022 -0.11355153 -0.04125114 0.24163345 -0.030109372 -0.34407073 0.31280932 -0.06738124
-0.017631693 -0.15120699 -0.12148798 -0.029552227 9.22443e-05 0.00815254 -0.08529154 -0.027253704
0.049998544 -0.19362819 -0.23291665 -0.027783757 -0.023707023 -0.18018119 0.25103796 -0.23685785
0.118340135 0.28295386 0.05531622 -0.091091916 0.0019343065 0.21457237 -0.1630574 -0.30989736
0.14452672 0.10817692 0.12132658 0.07712429 0.08173407 0.29347476 0.4286332 -0.06867479
0.121029735 0.1838295 0.14288503 -0.34983343 0.112457454 0.25004703 -0.17236097 -0.28842977
0.24174258 0.046489116 -0.25137186 -0.36474496 0.261233 0.4468577 0.2204772 0.116779715
0.19146138 0.3949437 -0.46860793 -0.00676877 -0.61816525 -0.54072636 0.26406512 -0.29955634
0.030794164 -0.08387933 -0.015605274 -0.18771102 -0.30014855 0.2794061 -0.21989454 0.0014615551
-0.23095557 -0.30739662 -0.32360074 -0.4661528 -0.04972217 -0.12956443 -0.03635111 -0.25960663
0.0002812039 -0.3230187 -0.07263079 -0.47395307 0.20210505 0.72729635 -0.23224837 0.05167652
0.09252088 -0.31563032 -0.28903717 -0.6424558 -0.22951569 -0.5493108 0.10927008 0.12191448
-0.37987116 0.035039242 -0.69952047 -0.36535347 -0.20205551 0.5230397 -0.39115518 -0.18281619
-0.057042506 -0.12739757 -0.040905524 -0.21012717 -0.36400026 -0.14390685 -0.23011297 -0.86112845
0.3693249 0.048104342 -0.26508504 -0.6149579 0.3103789 0.5673984 -0.3698974 -0.21873999
00000000: 8f45 ea3d f066 973e 1862 93be 567a ea3d
00000010: e9b5 12be 3deb 063e fb52 5b3d 064a 80be
00000020: 703d 27be df28 c8be 7620 263e b166 e8bc
00000030: f6ad b43d f5c8 2a3e e58d 233d ba35 953b
00000040: 8b98 a33e 51f3 143e e984 ecbe 0c2f c4be
00000050: 5d7b 103e d7e1 8d3d ca01 db3c 6d61 22be
00000060: 93a9 1a3e c538 41be 2b5a de3d 40b6 2bbe
00000070: 2765 863e 421c 1a3f feb5 9abd 53ba 61bd
00000080: 4934 b2bd 053f d6be 0aad 263c 9dcc 1bbe
00000090: c6cc 2abe 2ca9 a5bc 2bf5 123e 9e6c 633d
000000a0: a37d 44be 7a56 91bd 9394 27be b0ad b43c
000000b0: 8192 a4bd 9cd5 94bd e124 003e 9bfe dabd
000000c0: c054 243e 0455 783d d580 39be 0601 44bc
000000d0: 9c46 5dbd 3276 723c 2ae8 33be d399 55be
000000e0: 5281 043e 720e f8bd b743 88be 1782 86bc
000000f0: 270f 653d 857c f53d b6c6 6abc 6965 80be
00000100: eb5c 843d a3c4 9bbe d4ac 7d3c 8f00 853e
00000110: d217 fdbc 9cf4 04bd 889c f3be d5d4 973e
00000120: b9bd d3bd 84d0 ec3d 5d70 173d ebe0 563e
00000130: 3a5b 043e b1f6 54bd df9e 20bd 255b 0fbf
00000140: 29b6 783b fa30 9dbc 060d cf3e 79eb ed3e
00000150: a322 abbe 116b 713e 9012 c23d e46f 7e3e
00000160: 763a d3bd e1a0 823e f870 1ebf 4b1f 1d3e
00000170: eda3 4ebe 6b45 08bf 1a04 3c3e c9e9 843d
00000180: e76a 89be 83d6 433e 240d e83d 6970 ae3e
00000190: 82d9 1e3c f216 3cbf f67e df3b 8623 f5bc
000001a0: 9d31 52be 5946 153d f4e0 b9be 3103 66bd
000001b0: 6223 1ebd 04c4 37be 741a 213d 91a4 3fbd
000001c0: ac2b 3bbe b500 3dbf 7b65 e9bc b9fa cd3d
000001d0: 4e3e b6bc 897b 40bf 0e42 a6be b8c5 ad3e
000001e0: 6aff 32bd b20b 943d 1ac9 39be 260f 953e
000001f0: 3cbe 3c3d 5483 df3c e813 a0bd d40c 3dbe
00000200: 7f42 6bbe 8db6 613e d2f7 cdbd 7fb8 ef3d
00000210: cc8d 4c3e d4fa aebd 22e4 08be 0000 cdbe
00000220: 4ddd a4bd b48d e8bd f5f6 28bd c26e 773e
00000230: eea7 f6bc 0a2a b0be 8b28 a03e 2dff 89bd
00000240: 5770 90bc 01d6 1abe b1ce f8bd 8317 f2bc
00000250: 4873 c138 3b92 053c 55ad aebd 2943 dfbc
00000260: 46cb 4c3d 7846 46be b481 6ebe c39a e3bc
00000270: 3b35 c2bc 6b81 38be 0c88 803e dd8a 72be
00000280: 505c f23d 54df 903e 4393 623d 668e babd
00000290: 8e88 fd3a dcb8 5b3e 85f8 26be deaa 9ebe
000002a0: d0fe 133e dc8b dd3d 127a f83d 57f3 9d3d
000002b0: 3164 a73d 5342 963e d075 db3e 5ea5 8cbd
000002c0: 70de f73d cd3d 3c3e 7450 123e 5e1d b3be
000002d0: 1850 e63d 2a06 803e 657f 30be 11ad 93be
000002e0: 5e8b 773e 5f6b 3e3d d0b3 80be dabf babe
000002f0: 55c0 853e 88ca e43e c6c4 613e 342a ef3d
00000300: 740e 443e 1036 ca3e 61ed efbe 8fcc ddbb
00000310: 1440 1ebf 0b6d 0abf 8b33 873e 735f 99be
00000320: 0b44 fc3c edc8 abbd 43ad 7fbc 5137 40be
00000330: 12ad 99be 510e 8f3e 092c 61be a791 bf3a
00000340: 9e7f 6cbe 1763 9dbe ffae a5be 94ab eebe
00000350: 79a9 4bbd 8aac 04be e7e4 14bd 29eb 84be
00000360: 8c6e 9339 b562 a5be 74bf 94bd faa9 f2be
00000370: a0f4 4e3e 1830 3a3f 84d2 6dbe c2aa 533d
00000380: 967b bd3d 4c9a a1be aefc 93be fc77 24bf
00000390: 2906 6bbe a29f 0cbf fec8 df3d 4dae f93d
000003a0: 797e c2be 4f85 0f3d c613 33bf 9c0f bbbe
000003b0: a4e7 4ebe eee5 053f 7e45 c8be 2b34 3bbe
000003c0: 67a5 69bd 8274 02be 8d8c 27bd 942b 57be
000003d0: 3e5e babe 515c 13be bca2 6bbe ea72 5cbf
000003e0: 2718 bd3e 0f09 453d 3ab9 87be e26d 1dbf
000003f0: fce9 9e3e 0641 113f 3163 bdbe 60fd 5fbe

conv2d_2/Conv2D_bias f4 [64]
0.2550147 0.9851501 0.054193016 0.04765421 0.054682482 -0.49017316 0.15683746 0.101814695
-0.3628151 0.30791008 -0.02976918 0.07154897 -0.039877195 0.2238275 0.33349204 0.31207386
0.35955152 0.18075348 0.3695749 0.5986354 -0.05394285 0.3969041 0.11009848 -0.22399692
1.2370821 0.75223345 0.35227844 0.36456752 0.4486393 0.7872323 0.21218617 -0.27976793
0.6629638 0.469712 0.29087064 0.24156912 0.29322287 0.23909223 0.40319467 0.7404716
-0.03186328 0.24045931 0.28309137 0.43970233 -0.09380736 -0.18417872 0.02003789 0.5743731
0.2510563 0.67633456 0.21828347 0.09793109 0.02804028 -0.08447479 -0.40629476 0.6072502
0.028488532 0.29484138 0.5595927 0.1105712 0.030938847 0.19394854 0.08687884 0.20778821
00000000: 4991 823e cc32 7c3f 7ff9 5d3d 1031 433d
00000010: bdfa 5f3d faf7 fabe 009a 203e 3984 d03d
00000020: e7c2 b9be 64a6 9d3e 7fde f3bc 4488 923d
00000030: 4556 23bd 0933 653e 78bf aa3e 25c8 9f3e
00000040: 2317 b83e 7117 393e ec38 bd3e 2b40 193f
00000050: 2ef3 5cbd 0437 cb3e 507b e13d 735f 65be
00000060: b558 9e3f 5f92 403f d75d b43e 98a8 ba3e
00000070: 0db4 e53e 0e88 493f 5547 593e be3d 8fbe
00000080: ffb7 293f 177e f03e ffec 943e e55d 773e
00000090: 4f21 963e 98d4 743e 886f ce3e 8c8f 3d3f
000000a0: 1283 02bd f73a 763e 5af1 903e aa20 e13e
000000b0: 131e c0bd 5999 3cbe 8026 a43c 1e0a 133f
000000c0: 748a 803e 4324 2d3f b485 5f3e 1890 c83d
000000d0: bbb4 e53c 1e01 adbd de05 d0be c074 1b3f
000000e0: c860 e93c 73f5 963e 7841 0f3f 2773 e23d
000000f0: 7773 fd3c 729a 463e 89ed b13d 6fc6 543e

conv2d_2/kernel f4 [64, 3, 3, 64]
-0.0027598965 -0.07844178 0.19197598 -0.114829116 0.07109422 0.018010024 -0.13231759 -0.13735297
-0.036253277 -0.4653653 0.17744194 -0.6257228 -0.00020561254 -0.342467 -0.35872212 -0.24763697
-0.16686554 -0.3346719 -0.4246325 -0.001471148 0.020609718 0.21584028 -0.58669734 -0.34248948
-0.23109652 -0.105148904 -0.02149976 0.23216069 -0.11832734 -0.39125952 -0.011730275 -0.17614046
-0.04024893 0.22775306 -0.5986997 -0.36745977 0.017634636 -0.026704602 0.0063984008 -0.17847262
-0.058709987 0.17833598 -0.24579298 -0.12924546 -0.26647896 -0.1614448 -0.11946546 -0.038923696
0.026612358 -0.21187264 0.28549466 -0.18788385 -0.5722192 -0.5942618 0.079816386 -0.2566456
-0.46264017 0.35318753 -0.21283083 0.048817255 -0.06742494 -0.12460698 0.08018972 -0.15222935
0.004360563 -0.032596026 0.017709227 -0.045094904 0.15141536 0.16030298 0.21324834 0.1738898
0.38829216 -0.25433433 0.32578158 0.0036927538 0.19387387 -0.14718278 0.14598173 -0.24061653
0.21058972 -0.04688661 0.11378017 -0.014856411 0.009728154 0.0647923 -0.08862995 -0.14419173
0.020399215 -0.18827578 0.0026054515 0.012721524 0.19251549 -0.13376234 0.07270038 0.06768406
-0.04658261 0.16878839 0.111403815 0.17845841 0.28401616 -0.1574771 0.0092848465 0.09507748
-0.09964639 0.24495994 -0.012757695 -0.08527351 0.2838081 0.04568497 -0.057202518 -0.28348207
0.060990058 -0.05702216 0.028640592 -0.08416939 0.075027205 -0.25311983 0.2566843 -0.5942812
0.07007153 0.24414496 0.11851519 -0.15465422 0.28189534 0.04355655 0.13766658 -0.21076705
-0.42811772 -0.71148413 -0.15757284 0.06724563 -0.37648782 -0.1489996 -0.23526272 0.6717138
0.25339282 -0.2929621 0.0077959113 -0.049943715 -0.22134751 -0.09225226 0.11765409 -0.08418052
-0.0086671235 -0.11290223 -0.30219272 -0.18122482 -0.07156075 -0.029974446 -0.04868616 -0.04316383
-0.17128445 -0.2243104 -0.5105186 -0.021387331 -0.045023087 -0.021905001 0.076002 0.067103356
-0.23995885 0.04897489 -0.06996699 0.11434712 0.18752618 -0.5404586 -0.18510891 0.23664477
-0.24911584 0.2267314 0.15191004 -0.014652848 0.48920238 0.05863404 -0.4715025 -0.114712216
-0.0057719955 0.052263208 -0.2502335 0.24374717 0.046156477 0.20343553 -0.16534694 -0.2833607
-0.28919876 0.09495979 -0.042690136 0.09806888 0.09322906 -0.07787764 0.2177842 0.23667517
0.05222752 0.20051555 0.089409016 0.0036298928 0.13187447 -0.06453641 -0.13720192 0.1273264
0.16872004 0.080569096 0.14889154 -0.16906454 0.040192917 0.07144151 0.1953145 0.15631889
0.15134493 -0.272937 -0.12917073 -0.08628896 -0.07196046 -0.3967784 0.15307033 -0.14920524
0.25391197 -0.296555 0.3599626 0.028615814 0.08286161 0.25166848 -0.11702676 -0.008283886
-0.3990732 -0.23240076 -0.2967551 -0.3617929 -0.08657415 0.22862516 -0.08038805 -0.11932474
0.10700556 0.3474901 0.027142981 0.004370119 0.12358345 -0.041673124 -0.03164639 0.14649731
-0.32360694 -0.17688031 0.11621019 0.11364844 0.34574944 0.38094142 -0.3060672 -0.20289886
-0.017800521 0.18593764 0.17546995 0.043308076 0.30207655 0.07925875 0.21811028 0.041778546
00000000: 61df 34bb 15a6 a0bd 5a95 443e 872b ebbd
00000010: d999 913d c289 933c 437e 07be 42a6 0cbe
00000020: 517e 14bd 5c44 eebe 57b3 353e 5f2f 20bf
00000030: b299 57b9 d657 afbe 6daa b7be 8c94 7dbe
00000040: cdde 2abe 1e5a abbe 6e69 d9be 89d3 c0ba
00000050: b6d5 a83c 3c05 5d3e cc31 16bf c85a afbe
00000060: 91a4 6cbe 4f58 d7bd 4420 b0bc 88bb 6d3e
00000070: 9b55 f2bd 2b53 c8be 5730 40bc 2a5e 34be
00000080: 10dc 24bd 1938 693e 6244 19bf b023 bcbe
00000090: 8376 903c 9cc3 dabc ada9 d13b 87c1 36be
000000a0: e279 70bd b59d 363e 28b1 7bbe ec58 04be
000000b0: ee6f 88be c951 25be 4faa f4bd 746e 1fbd
000000c0: 2902 da3c 24f5 58be 5b2c 923e a064 40be
000000d0: f57c 12bf 8b21 18bf c676 a33d 0d67 83be
000000e0: 2cdf ecbe ffd4 b43e 53f0 59be 9af4 473d
000000f0: 1616 8abd f231 ffbd 823a a43d 03e2 1bbe
00000100: 0ee3 8e3b 6983 05bd f112 913c 6fb5 38bd
00000110: a10c 1b3e 7726 243e c65d 5a3e 2b10 323e
00000120: 3bce c63e 1c38 82be d8cc a63e 2102 723b
00000130: df86 463e 15b7 16be 3c7c 153e 2e64 76be
00000140: d5a4 573e 2d0c 40bd 9405 e93d 4e68 73bc
00000150: d662 1f3c d3b1 843d 9f83 b5bd ffa6 13be
00000160: 411c a73c 5ecb 40be 39c0 2a3b f06d 503c
00000170: c822 453e fff8 08be f0e3 943d f19d 8a3d
00000180: 68cd 3ebd ddd6 2c3e af27 e43d cdbd 363e
00000190: 916a 913e ad41 21be 781f 183c fbb7 c23d
000001a0: 6813 ccbd c7d6 7a3e a705 51bc e1a3 aebd
000001b0: 4c4f 913e 2a20 3b3d 304d 6abd 9024 91be
000001c0: b6d0 793d 1290 69bd ad9f ea3c 0061 acbd
000001d0: dda7 993d ec98 81be 206c 833e d022 18bf
000001e0: aa81 8f3d 2301 7a3e 18b8 f23d ad5d 1ebe
000001f0: 9654 903e 5a68 323d 78f8 0c3e 51d3 57be
00000200: 3f32 dbbe d323 36bf c65a 21be 14b8 893d
00000210: 03c3 c0be 5a93 18be b6e8 70be 70f5 2b3f
00000220: b4bc 813e 21ff 95be d874 ff3b c891 4cbd
00000230: eca8 62be c1ee bcbd a1f4 f03d d666 acbd
00000240: 8d00 0ebc 4939 e7bd 01b9 9abe 0093 39be
00000250: 718e 92bd f88c f5bc 246b 47bd 8ecc 30bd
00000260: 3165 2fbe a0b1 65be 59b1 02bf 7c34 afbc
00000270: 216a 38bd 1e72 b3bc f0a6 9b3d 7c6d 893d
00000280: c6b7 75be e599 483d da4a 8fbd d32e ea3d
00000290: dd06 403e 7f5b 0abf 318d 3dbe 0253 723e
000002a0: 3918 7fbe 472c 683e 4e8e 1b3e 8012 70bc
000002b0: bc78 fa3e 3f2a 703d c768 f1be 3dee eabd
000002c0: 0223 bdbb f211 563d 9b1e 80be dc98 793e
000002d0: 930e 3d3d 6751 503e b550 29be a714 91be
000002e0: dc11 94be 477a c23d dadb 2ebd 56d8 c83d
000002f0: e1ee be3d 507e 9fbd d202 5f3e fa5a 723e
00000300: 86ec 553d f353 4d3e 131c b73d 7fe3 6d3b
00000310: 1a0a 073e aa2b 84bd a97e 0cbe da61 023e
00000320: f2c4 2c3e 6901 a53d 0677 183e 411f 2dbe
00000330: 54a1 243d ed4f 923d 8600 483e 0f12 203e
00000340: 2afa 1a3e 66be 8bbe 5545 04be 44b8 b0bd
00000350: 0160 93bd 8a26 cbbe 78be 1c3e 42c9 18be
00000360: c000 823e 0fd6 97be 054d b83e b66b ea3c
00000370: 59b3 a93d b1da 803e baab efbd 23b9 07bc
00000380: 5353 ccbe 77fa 6dbe 49f0 97be eb3c b9be
00000390: ca4d b1bd b71c 6a3e 7da2 a4bd 8760 f4bd
000003a0: bb25 db3d 39ea b13e f55a de3c 3733 8f3b
000003b0: 5219 fd3d 70b1 2abd a59f 01bd 6403 163e
000003c0: cfaf a5be 1d20 35be 9cff ed3d 83c0 e83d
000003d0: 1206 b13e c10a c33e d7b4 9cbe b8c4 4fbe
000003e0: 66d2 91bc 7066 3e3e 65ae 333e cf63 313d
000003f0: c7a9 9a3e 6952 a23d 4d58 5f3e fb1f 2b3d

conv2d_3/Conv2D_bias f4 [128]
-0.68162304 -0.33959156 -0.06262139 -0.23281607 -0.29573008 -0.07665353 -0.55744094 -0.61174816
-0.29367766 -0.26513124 -0.53406364 -0.87392443 -0.4213346 0.09948471 -1.1121762 -0.35669488
-0.54723585 -0.48921615 -0.3544854 -0.16221559 -0.1962228 -1.0240902 -0.8188945 -0.3049975
-0.37031606 0.013635724 -0.18007088 -0.0713471 -0.43550536 -0.034889262 0.686013 -0.16003536
-0.74667925 -0.58403987 -0.33449492 -0.20062262 -0.2907631 -0.5574793 -0.5169503 0.09709539
-0.53178537 -0.54551435 -0.53843796 -0.4214714 -0.4356174 -0.476454 -0.25365642 0.03594301
0.064430706 0.11354905 -0.6787858 -0.23413911 -0.30492902 -0.037368774 -0.5029213 -0.91980344
-0.5602691 -0.029714104 -0.0025345264 -0.4824488 -0.6851685 -0.13504562 0.19498691 -0.5954596
0.108219825 -0.67931056 -0.09627811 0.032283217 -0.5122557 -0.34055427 -0.7149918 -1.0829177
0.12100198 -0.29618123 -0.5292229 -0.76822656 -0.5600768 -0.9715416 -0.8207148 -0.4879343
-0.5562487 -0.64448214 -0.48476923 -0.38030764 -0.25475037 -0.0012016924 -0.23689795 -0.18408507
-0.03846904 0.0101023475 -0.32310522 -0.9333374 -0.49007776 -0.5775384 -0.27760088 -0.28569788
-0.31542706 -0.39880064 -0.27000582 -0.8109581 -0.08501655 -0.08087977 -0.5108047 -0.3502794
-0.18775555 -0.104651354 -0.27656403 -0.38766682 -0.31207287 0.26192075 -0.71863794 -0.47937587
-0.80087763 -0.47152987 -0.2821602 -0.12084489 -0.51331234 -0.36587584 -0.7236887 -0.6624602
-0.35122254 -0.5484147 -0.74162954 -0.8788165 -0.2667918 0.01931554 -0.448695 -0.12947342
00000000: d97e 2ebf f2de adbe a53f 80bd 5667 6ebe
00000010: ef69 97be 87fc 9cbd 73b4 0ebf 879b 1cbf
00000020: eb5c 96be 48bf 87be 65b8 08bf 83b9 5fbf
00000030: 2bb9 d7be a4be cb3d ca5b 8ebf b6a0 b6be
00000040: a617 0cbf 8a7a fabe 1c7f b5be d81b 26be
00000050: a1ee 48be 6315 83bf 12a3 51bf a228 9cbe
00000060: 119a bdbe 5f68 5f3c 8064 38be 6e1e 92bd
00000070: 8ffa debe 0be8 0ebd 8c9e 2f3f 4fe0 23be
00000080: 5f26 3fbf a383 15bf eb42 abbe 0470 4dbe
00000090: e7de 94be f7b6 0ebf db56 04bf f3d9 c63d
000000a0: 1623 08bf d4a6 0bbf 12d7 09bf 19cb d7be
000000b0: 3e09 dfbe c7f1 f3be 41df 81be fa38 133d
000000c0: 3ff4 833d 688c e83d e8c4 2dbf 2ac2 6fbe
000000d0: a81f 9cbe 0010 19bd 73bf 00bf 3d78 6bbf
000000e0: cc6d 0fbf fe6a f3bc 4c1a 26bb 8703 f7be
000000f0: 3467 2fbf 6649 0abe a6aa 473e 0a70 18bf
00000100: 5ba2 dd3d 4ce7 2dbf 752d c5bd 683b 043d
00000110: 3123 03bf 215d aebe b409 37bf 0c9d 8abf
00000120: e3cf f73d 11a5 97be 277b 07bf 7faa 44bf
00000130: 3161 0fbf f3b6 78bf 5d1a 52bf 86d2 f9be
00000140: 5166 0ebf c8fc 24bf ac33 f8be afb7 c2be
00000150: a46e 82be 1b82 9dba 6095 72be cc80 3cbe
00000160: b691 1dbd 5184 253c 0c6e a5be 33ef 6ebf
00000170: 79eb fabe 8ed9 13bf b421 8ebe fe46 92be
00000180: a87f a1be 992f ccbe 343e 8abe f39a 4fbf
00000190: 281d aebd 4ba4 a5bd 19c4 02bf d257 b3be
000001a0: fe42 40be 7353 d6bd cd99 8dbe 447c c6be
000001b0: 04c8 9fbe 7a1a 863e a8f8 37bf c170 f5be
000001c0: 5106 4dbf 5d6c f1be 4d77 90be 877d f7bd
000001d0: 7068 03bf 1454 bbbe aa43 39bf fe96 29bf
000001e0: 71d3 b3be e864 0cbf 6fdb 3dbf 1efa 60bf
000001f0: ef98 88be a03b 9e3c 5abb e5be ae94 04be

conv2d_3/kernel f4 [128, 3, 3, 64]
-0.01769628 -0.13463122 -0.2472781 -0.23363465 -0.3440195 -0.25640815 0.050594028 -0.17935996
0.052465055 -0.0844965 0.18665785 0.051333632 -0.07384608 0.23005532 0.06190547 -0.715369
-0.25643152 -0.42294344 0.18169248 -0.20750119 0.31956294 -0.15116107 -0.5292713 -0.12706827
0.18811695 -0.27145985 -0.3103618 -0.1648265 -0.033842452 0.18359622 -0.3395086 0.24898727
-0.08655653 -0.09684713 -0.051475447 0.046889395 -0.14155975 0.2384738 -0.24096343 0.2225227
0.05957979 0.07702973 -0.09886911 0.052138817 -0.07111773 -0.060920812 -0.1242707 -0.04482005
-0.07031504 0.058835384 -1.0755577 -0.07586702 -0.49343443 -0.15791184 0.100252055 -0.095306136
-0.23634598 0.053627916 0.05686973 0.44626 -0.17714298 0.18279606 -0.11162287 -0.144547
0.07967352 -0.31028295 0.26510778 -0.53850055 -0.44430122 -0.33566636 -0.62666154 0.15643486
0.21087597 -0.28627014 -0.29500535 -0.2812405 0.0973477 -0.12614985 0.06663248 0.11995026
-0.38637498 0.18103826 -0.21684065 0.020281054 0.18872118 0.21881501 -0.37492517 0.1779697
-0.5163816 -0.34477758 -0.080135584 0.26456806 0.17812933 0.23135258 -0.037183456 -0.4681745
-0.26010835 -0.0011319363 0.16723312 0.2935807 -0.41005036 0.08063919 0.27345744 0.0028992102
0.1674786 0.13939607 0.09381252 -0.16381449 -0.38003087 0.077295125 0.010827834 -0.13844514
-0.11158281 -0.31941414 -0.18950863 -0.38538507 -0.23192933 0.12916814 -0.007317502 -0.10634666
-0.25827706 -0.035928294 -0.003505924 -0.077776425 -0.08605764 0.05377972 0.12282193 -0.15130882
-0.08353535 0.02491552 0.043697555 -0.5347746 -0.026749125 0.19327036 -0.03522509 0.22537689
-0.16867104 0.015522076 0.10099572 -0.08082835 -0.079022355 0.08866293 0.2783072 0.14799851
0.32662618 0.18024886 0.0044404888 0.014243876 -0.3462223 -0.026268093 0.0139048435 -0.17458238
-0.10765286 -0.19256586 0.14801559 -0.19890763 -0.038654104 -0.35648245 0.31078148 -0.38266453
-0.012311462 0.16167314 -0.014920123 -0.11566001 -0.13647965 0.05690282 0.034210093 -0.30024645
-0.25580338 -0.06945367 0.009423133 -0.5517741 -0.5205624 -0.0698032 -0.24730968 -0.05172137
-0.15677196 -0.08663302 0.2674541 -0.043575954 -0.21266238 0.5640101 -0.553601 -0.39317408
0.11342292 0.14712068 -0.079590574 -0.49069142 -0.3551786 0.01526783 0.030871576 -0.09696085
-0.063514605 0.06776965 -0.46098867 -0.9096054 0.020206602 -0.35752314 -0.23541135 -0.09641627
-0.2966529 -0.17668225 -0.06748179 0.10758769 -0.024384331 -0.013712144 -0.2644536 -0.23607771
-0.083552785 -0.7929346 -0.38545558 -0.19895154 0.2686799 0.21446747 -1.0403248 -0.28198043
0.19668901 -0.14470488 -0.21424156 -0.20573005 -0.094342224 -0.08668541 0.11761585 -0.05997997
0.0103726 0.08546345 0.16535492 0.22080246 -0.38530153 0.032839034 -0.17289726 0.09427229
0.047414146 -0.1714066 0.40394625 0.19273716 -0.052962884 -0.14126253 -0.06963611 0.13584405
-0.48534536 0.021261686 0.003117665 -0.027743487 0.27763847 0.08673323 -0.14375933 0.18577303
0.32559678 -0.046108104 0.06803717 0.15802558 -0.59089106 -0.20675714 0.14804143 -0.28232732
00000000: caf7 90bc c4dc 09be 7836 7dbe ec3d 6fbe
00000010: 5323 b0be ee47 83be af3b 4f3d 23aa 37be
00000020: 99e5 563d 800c adbd 3c23 3f3e 3743 523d
00000030: 9d3c 97bd 9f93 6b3e 9790 7d3d 6c22 37bf
00000040: fe4a 83be 0b8c d8be 980d 3a3e 317b 54be
00000050: c19d a33e f8c9 1abe 537e 07bf 2f1e 02be
00000060: bba1 403e c9fc 8abe bee7 9ebe 47c8 28be
00000070: 629e 0abd a600 3c3e 12d4 adbe 85f6 7e3e
00000080: 8d44 b1bd ca57 c6bd ebd7 52bd 180f 403d
00000090: 0af5 10be 7a32 743e 1ebf 76be fedc 633e
000000a0: f009 743d c3c1 9d3d e37b cabd 838f 553d
000000b0: 2ca6 91bd 1a88 79bd a381 febd 3b95 37bd
000000c0: 5501 90bd 5ffd 703d e0ab 89bf 2b60 9bbd
000000d0: 70a3 fcbe a4b3 21be f350 cd3d dd2f c3bd
000000e0: ae04 72be f2a8 5b3d 3cf0 683d 317c e43e
000000f0: f864 35be e42e 3b3e 889a e4bd 2104 14be
00000100: df2b a33d 68dd 9ebe 35bc 873e 2cdb 09bf
00000110: 737b e3be 76dc abbe e46c 20bf 7630 203e
00000120: dfef 573e 0092 92be f10a 97be c1fe 8fbe
00000130: 3b5e c73d 6d2d 01be 9c76 883d 7ba8 f53d
00000140: f1d2 c5be 1862 393e 7a0b 5ebe 7424 a63c
00000150: 2040 413e 0b11 603e 31f6 bfbe b03d 363e
00000160: 9631 04bf b086 b0be 201e a4bd 7775 873e
00000170: 8967 363e b1e7 6c3e ae4d 18bd 91b4 efbe
00000180: ec2c 85be 7b5d 94ba 293f 2b3e 3650 963e
00000190: 1ff2 d1be 2926 a53d 9d02 8c3e ad00 3e3b
000001a0: 837f 2b3e d8bd 0e3e c720 c03d fcbe 27be
000001b0: 6893 c2be e84c 9e3d 3a67 313c 90c4 0dbe
000001c0: 8785 e4bd 408a a3be 8d0e 42be 3151 c5be
000001d0: e27e 6dbe a744 043e a8c7 efbb 47cc d9bd
000001e0: e43c 84be 8c29 13bd a5c3 65bb 3f49 9fbd
000001f0: fd3e b0bd 2048 5c3d 108a fb3d b3f0 1abe
00000200: 9514 abbd a21b cc3c 35fc 323d fde6 08bf
00000210: fb20 dbbc aae8 453e 2f48 10bd 33c9 663e
00000220: 1ab8 2cbe 4e50 7e3c d8d6 ce3d 5589 a5bd
00000230: 79d6 a1bd e994 b53d 487e 8e3e ec8c 173e
00000240: 8c3b a73e 2893 383e 8581 913b 255f 693c
00000250: 0d44 b1be 2f30 d7bc 24d1 633c b9c5 32be
00000260: 1a79 dcbd fc2f 45be 6691 173e 71ae 4bbe
00000270: c453 1ebd de84 b6be c01e 9f3e 9bec c3be
00000280: 04b6 49bc a58d 253e 8873 74bc 28df ecbd
00000290: 52c1 0bbe ee12 693d e21f 0c3d e7b9 99be
000002a0: a9f8 82be ba3d 8ebd 7c63 1a3c 1141 0dbf
000002b0: 9443 05bf fbf4 8ebd c03e 7dbe cad9 53bd
000002c0: d488 20be a76c b1bd beef 883e b37c 32bd
000002d0: 2bc4 59be f762 103f ccb8 0dbf 1d4e c9be
000002e0: 474a e83d cea6 163e 6200 a3bd e83b fbbe
000002f0: f8d9 b5be ec25 7a3c 63e6 fc3c 6993 c6bd
00000300: f213 82bd d0ca 8a3d b506 ecbe e6db 68bf
00000310: 5188 a53c 460d b7be ac0f 71be e575 c5bd
00000320: e4e2 97be 31ec 34be e533 8abd ef56 dc3d
00000330: a6c1 c7bc e7a8 60bc 7666 87be 5bbe 71be
00000340: b91d abbd c3fd 4abf 6f5a c5be f4b9 4bbe
00000350: 6990 893e 5c9d 5b3e 5d29 85bf bd5f 90be
00000360: d868 493e 842d 14be 2462 5bbe e6aa 52be
00000370: 7f36 c1bd 1f88 b1bd 94e0 f03d 8fad 75bd
00000380: d6f1 293c 7607 af3d cd52 293e 0a1a 623e
00000390: 3e46 c5be 3982 063d fb0b 31be d511 c13d
000003a0: 5635 423d 3685 2fbe 0bd2 ce3e e45c 453e
000003b0: 9cef 58bd 20a7 10be 609d 8ebd b41a 0b3e
000003c0: 307f f8be fd2c ae3c bd51 4c3b 4f46 e3bc
000003d0: a126 8e3e 31a1 b13d a535 13be 493b 3e3e
000003e0: 9fb4 a63e dadb 3cbd 1257 8b3d 75d1 213e
000003f0: a344 17bf 25b8 53be 2c98 173e 358d 90be
